hey_kai.tflite (tflite, 206964 bytes, 9 tensors)

arith.constant f4 [1, 32]
-0.008521206 0.24442586 0.00028924464 -0.34979975 0.15614401 0.09498525 0.03200139 0.1565982
0.14035788 0.08424316 -0.37548792 0.2453928 -0.35875964 0.2289054 0.0671984 0.00063527894
-0.35904 0.18335488 0.23055935 0.2026644 0.13676529 -0.22446316 -0.39607784 -0.4074913
0.20739931 -0.31360698 0.27445218 0.2156369 0.11023689 0.119807765 0.23085143 -0.353417
00000000: 879c 0bbc c64a 7a3e c2a5 9739 f418 b3be
00000010: 37e4 1f3e a087 c23d e413 033d 475b 203e
00000020: fab9 0f3e ae87 ac3d f43f c0be 4048 7b3e
00000030: 58af b7be 2d66 6a3e 519f 893d d988 263a
00000040: 17d4 b7be 62c1 3b3e c017 6c3e 4287 4f3e
00000050: 330c 0c3e acd9 65be b7ca cabe b3a2 d0be
00000060: 7c60 543e 1891 a0be ff84 8c3e ebcf 5c3e
00000070: e1c3 e13d c65d f53d 5164 6c3e 13f3 b4be

arith.constant1 f4 [32, 32]
0.029320708 -0.0027937524 0.018482296 -0.10695122 -0.018973816 0.15280873 -0.13283221 0.04919867
0.11335611 0.13180369 -0.05890491 0.08528372 -0.09141553 0.10783681 0.020953238 -0.0031123343
-0.1260941 -0.10030968 0.11094227 0.009359105 0.09304551 0.1150694 0.09853109 -0.05791088
-0.14500357 -0.059137207 0.011812102 0.0674672 -0.052659187 -0.100534245 -0.14809997 -0.001975514
0.0907778 -0.07718373 -0.059065823 0.013825919 -0.065435454 0.049520154 -0.076176316 -0.114775576
0.14578423 0.09681895 -0.114189364 0.08981412 0.0787688 0.13741863 0.14344491 -0.038063806
0.046760708 0.030149668 -0.15984721 0.05222717 -0.006420949 0.04488818 -0.01751454 -0.09273103
0.014082783 -0.14920816 -0.031028828 0.013324013 -0.19528696 0.14066179 -0.13363168 0.031404883
-0.0019605276 -0.08873353 0.03158128 -0.005593558 -0.07391244 0.08304633 0.08754969 0.004170826
-0.10605979 0.049424894 -0.027248759 0.028539406 -0.12310096 -0.09889666 -0.063438475 0.040740978
0.115204915 -0.1476483 -0.11932337 -0.14769366 -0.039945118 -0.020775042 -0.023644628 0.03142134
0.09426511 0.050343055 0.038866073 0.04319834 0.04651849 0.08709632 -0.1480925 0.024343764
-0.0074507063 -0.039482217 0.021222904 -0.03692988 -0.15816355 -0.17318153 -0.09138107 -0.07763247
-0.04957921 0.07578684 0.14038526 -0.05655964 -0.04683645 -0.025316508 0.062320407 0.014482339
-0.048121944 0.15875289 0.08128752 -0.09562961 0.016693234 0.02638594 0.14959742 0.010067471
0.0029696294 -0.04121583 0.1254484 0.091490954 0.16247962 -0.15282264 -0.10877099 -0.06840902
0.16953634 -0.028124992 -0.17135413 -0.073240615 0.111832194 0.03666819 -0.07913132 0.10893869
0.08096418 -0.07330654 -0.14843325 0.04628345 -0.13340983 0.070213735 -0.02591819 0.10271466
0.051299024 0.05687667 -0.006695707 0.072910674 -0.0075041545 0.006649414 0.008625806 -0.028493665
0.07926452 -0.012546412 0.029764354 0.050280493 -0.19772178 0.17620495 0.05666069 0.07721897
0.1644517 0.05369648 -0.0034078793 -0.03772985 0.012412635 0.06949245 0.11522868 0.11227595
0.031078998 0.17568617 0.037926674 0.12796603 0.027840659 -0.066536754 -0.04086126 0.012874517
-0.15256947 0.10102329 0.027651962 0.15889278 -0.01688184 -0.07389957 0.014477391 -0.031460084
0.0044127335 0.13769569 0.16167586 -0.16007966 0.049114987 -0.048869815 0.16500886 0.016716814
-0.038046133 0.09141074 0.080292515 0.07744694 0.17660503 0.17091389 -0.07629734 -0.02908943
-0.042282425 0.04603124 -0.07607852 0.08645891 0.060295135 -0.03274064 0.17967342 0.023777049
-0.07984495 0.12675074 0.010294232 -0.055145312 -0.02232843 0.12825398 -0.07365456 -0.007506739
-0.038025644 -0.13228549 0.048716865 -0.049646396 -0.05757428 -0.088149466 -0.096711725 0.11964692
0.038989894 -0.15202096 0.14324813 0.12737855 0.12769042 -0.036882367 -0.09527316 -0.12260514
0.009114134 0.122085996 0.080425486 0.11758535 -0.04391673 -0.118791364 -0.02591117 -0.047192518
-0.14968617 -0.09748941 -0.13360834 0.19591263 0.10682609 -0.082265414 -0.07905511 -0.11305495
-0.07813233 0.10310966 -0.06646596 -0.024197413 -0.023990344 0.06164053 0.08988956 0.16081038
00000000: fb31 f03c 6317 37bb 2f68 973c 3e09 dbbd
00000010: fa6e 9bbc e479 1c3e 2b05 08be 8b84 493d
00000020: 4027 e83d 8cf7 063e 4646 71bd 3ba9 ae3d
00000030: 1138 bbbd 8cd9 dc3d 20a6 ab3c 4ef8 4bbb
00000040: d01e 01be 296f cdbd b335 e33d ee56 193c
00000050: a58e be3d 81a9 eb3d abca c93d f533 6dbd
00000060: d17b 14be db39 72bd 8c87 413c 3e2c 8a3d
00000070: 29b1 57bd e6e4 cdbd 85a7 17be a077 01bb
00000080: b6e9 b93d 8112 9ebd 01ef 71bd 1b86 623c
00000090: 0603 86bd a5d5 4a3d 5402 9cbd 750f ebbd
000000a0: 7648 153e 0349 c63d 1ddc e9bd 77f0 b73d
000000b0: 8951 a13d 78b7 0c3e 39e3 123e cbe8 1bbd
000000c0: 2888 3f3d 70fc f63c fdae 23be 28ec 553d
000000d0: d366 d2bb abdc 373d a77a 8fbc c4e9 bdbd
000000e0: 79bb 663c 06ca 18be 2b30 febc f64c 5a3c
000000f0: 4ef9 47be a509 103e bed6 08be 68a2 003d
00000100: 327c 00bb edb9 b5bd 5f5b 013d 2a4a b7bb
00000110: 685f 97bd 3214 aa3d 404d b33d 6dab 883b
00000120: e035 d9bd c271 4a3d ca38 dfbc 79cb e93c
00000130: 5b1c fcbd 558a cabd 08ec 81bd 03e0 263d
00000140: 8ef0 eb3d 1e31 17be d05f f4bd 023d 17be
00000150: 7e9d 23bd 6c30 aabc 61b2 c1bc aab3 003d
00000160: 110e c13d 8534 4e3d 0832 1f3d bef0 303d
00000170: 2c8a 3e3d 8e5f b23d 8fa5 17be 936c c73c
00000180: 0e25 f4bb 1bb8 21bd a8db ad3c c943 17bd
00000190: a0f5 21be 8056 31be 0026 bbbd c6fd 9ebd
000001a0: 9213 4bbd 2136 9b3d 27c1 0f3e 15ab 67bd
000001b0: 94d7 3fbd 9164 cfbc af43 7f3d 5547 6d3c
000001c0: 841b 45bd 1e90 223e 127a a63d 75d9 c3bd
000001d0: 40c0 883c 5427 d83c 1130 193e 09f2 243c
000001e0: 1d9e 423b eed1 28bd 8c75 003e 9c5f bb3d
000001f0: 0f61 263e 8a7d 1cbe 53c3 debd 071a 8cbd
00000200: ef9a 2d3e 6266 e6bc 7577 2fbe 2dff 95bd
00000210: 4708 e53d 6231 163d 9a0f a2bd 3f1b df3d
00000220: 8cd0 a53d bd21 96bd e3fe 17be b793 3d3d
00000230: 969c 08be 38cc 8f3d 6252 d4bc 105c d23d
00000240: ed1e 523d 83f7 683d a967 dbbb 3152 953d
00000250: 69e5 f5bb 54e3 d93b 4153 0d3c 8c6b e9bc
00000260: 7055 a23d 778f 4dbc 60d4 f33c ebf2 4d3d
00000270: 9477 4abe 126f 343e 0a15 683d fb24 9e3d
00000280: 0766 283e d7f0 5b3d ba56 5fbb 9d8a 1abd
00000290: 5d5e 4b3c 0f52 8e3d 04fd eb3d eff0 e53d
000002a0: 6299 fe3c 13e7 333e 0059 1b3d 8709 033e
000002b0: 1812 e43c 6c44 88bd 235e 27bd a3ef 523c
000002c0: 2c3b 1cbe 4ce5 ce3d 5e86 e23c cab4 223e
000002d0: c94b 8abc a858 97bd 9432 6d3c 4adc 00bd
000002e0: b198 903b 1900 0d3e 5b8e 253e eceb 23be
000002f0: cc2c 493d b72b 48bd 15f8 283e b3f1 883c
00000300: 43d6 1bbd 8e35 bb3d 6770 a43d 809c 9e3d
00000310: f3d7 343e 0d04 2f3e c841 9cbd f54c eebc
00000320: 5630 2dbd 418b 3c3d 0ecf 9bbd 5e11 b13d
00000330: 08f8 763d 0d1b 06bd 4ffc 373e 16c8 c23c
00000340: c085 a3bd f2ca 013e 23a9 283c 0de0 61bd
00000350: 1dea b6bc 0355 033e 34d8 96bd 17fb f5bb
00000360: c7c0 1bbd d975 07be 568b 473d 055a 4bbd
00000370: 02d3 6bbd b587 b4bd cc10 c6bd 7209 f53d
00000380: deb3 1f3d 62ab 1bbe a3af 123e 866f 023e
00000390: 47c1 023e f711 17bd 931e c3bd 6718 fbbd
000003a0: 7353 153c 3908 fa3d 1eb6 a43d 97d0 f03d
000003b0: 07e2 33bd e348 f3bd a943 d4bc f14c 41bd
000003c0: 5547 19be 87a8 c7bd a0d0 08be 529d 483e
000003d0: a3c7 da3d c57a a8bd a5e7 a1bd 5b89 e7bd
000003e0: d803 a0bd 282b d33d 4e1f 88bd a739 c6bc
000003f0: 6687 c4bc c87a 7c3d 0518 b83d 7aab 243e

arith.constant2 f4 [32, 1536]
-0.0016939044 0.024840882 0.010075201 -0.055410173 0.030432427 -0.020048253 -0.008154346 0.016566487
-0.011202597 -0.017000234 0.01096279 -0.008826017 0.03656925 0.0004907047 0.0064571397 -0.020348212
-0.024968034 0.00048803148 0.012908474 0.017245758 0.0015915997 -0.019725382 0.008255506 0.017595796
0.03151788 -0.00082338206 -0.0013556358 0.036100365 0.016960735 -0.0057871314 0.013474214 -0.0130913975
0.003950351 -0.024096275 -0.017844006 0.005689616 0.010601489 0.014347277 -0.016390873 -0.008687613
0.005552465 0.023422195 0.014282998 0.0026755566 -0.029085407 -0.004324712 0.013158398 -0.042176478
-0.00054680044 0.0125593385 0.026794204 -0.007898214 -0.0044154646 0.026955217 -0.01849346 -0.010356501
-0.015938604 0.009765303 0.014895011 -0.022753462 0.02003145 -0.017172365 0.016164238 -0.0017957039
0.0022828302 -0.0063210186 0.0044750576 -0.01843464 -0.021484662 -0.013183097 -0.01716666 -0.016416239
0.05605072 0.021232625 0.005881167 -7.901579e-05 0.008969641 0.0090889735 -0.0325533 -0.0049546906
0.034352567 0.0022686017 0.028692162 -0.0039128535 0.015926862 -0.040921696 0.025947135 -0.017017923
0.014037478 0.0008578417 0.01904159 -0.016981456 0.022031007 0.03079212 -0.018220238 -0.018144943
-0.029499697 -0.0012994731 0.005126768 0.018294398 0.028024696 -0.010721827 0.020792693 0.016019959
-0.028038181 -0.0069224588 -0.01140954 -0.038120843 0.035616618 -0.022001978 -0.015135634 0.001555777
-0.022763649 -0.0141802635 -0.012590089 -0.0018972481 -0.00870615 0.006288394 -0.0024174391 0.015830435
0.030272838 0.015603396 -0.020344393 0.014184234 0.019612854 -0.02109408 0.0026029742 -0.020925203
0.0034034436 0.003191931 0.0019580657 -0.010358189 0.01093253 0.012696959 0.014305103 0.007857487
0.0047992403 0.01660662 -0.013487457 0.020770485 -0.023180297 0.0064376434 0.00034298125 -0.009699117
-0.021214353 0.030860048 -0.027129082 0.0013013532 -0.002541865 0.009074391 -0.019523632 -0.016738009
-0.020532079 -0.03498428 -0.018144885 0.005706726 -0.01163636 -0.0033388082 0.015919289 -0.011289967
0.003131339 -0.0058846544 0.033492472 0.0053727194 -0.02843579 0.014876732 0.008579691 0.015544402
0.036119353 -0.022678142 0.017545313 -0.022545155 0.026697753 0.0143315885 0.003872154 0.013191115
0.009724036 -0.0011631666 -0.0016615599 -0.014629448 0.02078339 -0.022136638 -0.041980393 -0.0063875844
0.031674135 -0.00259133 0.016079571 -0.023630016 0.003213909 -0.012447807 0.04394279 -0.008027738
-0.03093525 0.0035288776 0.02561338 -0.0024750377 0.014386644 -0.01454852 0.025767557 -0.011431975
-0.04084613 0.014134426 -0.003519561 -0.0041030105 -0.014818161 0.0078071775 0.00023508076 0.017907213
0.007080283 0.010873888 -0.016132556 -0.0033144841 -0.013300257 -0.0065971515 0.0244011 0.0129080145
-0.00051496294 -0.013998063 -0.0007750747 -0.008710008 0.013329969 0.010924909 0.030616073 0.02429615
0.004272325 0.013856956 -0.022444725 -0.014799548 -0.022139492 -0.0019568673 -0.027787501 0.008632952
0.021238854 0.03504807 -0.01231855 0.02090183 -0.007677712 0.010758877 -0.012584158 -0.018235808
0.016224826 0.029031202 -0.0030306089 0.014276315 -0.0018585208 0.05964062 0.015534879 -0.0070530986
0.028367924 -0.02200028 0.030456988 -0.012314454 0.024360063 0.02470138 -0.0040088445 -0.016016603
00000000: 0006 deba 1b7f cb3c 7512 253c c7f5 62bd
00000010: 6d4d f93c 3c3c a4bc ce99 05bc 71b6 873c
00000020: 198b 37bc 1344 8bbc 469d 333c 009b 10bc
00000030: a3c9 153d a3a2 003a 6a96 d33b 4bb1 a6bc
00000040: c389 ccbc 7ade ff39 107e 533c fa46 8d3c
00000050: 399d d03a 2097 a1bc 1a42 073c 0f25 903c
00000060: e418 013d 3cd8 57ba 97af b1ba fadd 133d
00000070: 3df1 8a3c faa1 bdbb f3c2 5c3c 4d7d 56bc
00000080: f271 813b 8d65 c5bc 982d 92bc f56f ba3b
00000090: deb1 2d3c d710 6b3c 2746 86bc 7d56 0ebc
000000a0: 74f1 b53b e7df bf3c 3c03 6a3c 6458 2f3b
000000b0: 8544 eebc 50b6 8dbb 5296 573c 3ec1 2cbd
000000c0: 2857 0fba afc5 4d3c 857f db3c 8367 01bc
000000d0: 9aaf 90bb 30d1 dc3c 997f 97bc 50ae 29bc
000000e0: ad91 82bc a6fe 1f3c 340a 743c 7865 babc
000000f0: ff18 a43c 0fad 8cbc dd6a 843c d35d ebba
00000100: 899b 153b 8c20 cfbb 81a3 923b 3e04 97bc
00000110: 9a00 b0bc ebfd 57bc 18a1 8cbc 597b 86bc
00000120: 7195 653d 0bf0 ad3c ceb6 c03b 47b5 a5b8
00000130: 67f5 123c ebe9 143c 9c56 05bd f55a a2bb
00000140: 47b5 0c3d d2ac 143b d30b eb3c 6537 80bb
00000150: 0d79 823c 829d 27bd 168f d43c 2c69 8bbc
00000160: 73fd 653c c8e0 603a 1cfd 9b3c b21c 8bbc
00000170: 5f7a b43c c23f fc3c 9c42 95bc b4a4 94bc
00000180: 59a9 f1bc 1553 aaba 72fe a73b 22de 953c
00000190: 0c94 e53c 9aaa 2fbc 7055 aa3c 4a3c 833c
000001a0: 54b0 e5bc cbd5 e2bb 14ef 3abc 9a24 1cbd
000001b0: bbe2 113d 7e3d b4bc 73fb 77bc 37eb cb3a
000001c0: d57a babc 5654 68bc a946 4ebc 15ad f8ba
000001d0: 3da4 0ebc df0e ce3b e66d 1ebb d4ae 813c
000001e0: befe f73c 63a5 7f3c 49a9 a6bc fd64 683c
000001f0: 23ab a03c 7ecd acbc a996 2a3b 556b abbc
00000200: 4f0c 5f3b b72f 513b e452 003b 65b5 29bc
00000210: 5b1e 333c e806 503c f35f 6a3c b0bc 003c
00000220: f242 9d3b 9b0a 883c 7ffa 5cbc dd26 aa3c
00000230: 9be4 bdbc def2 d23b 2ad2 b339 0ce9 1ebc
00000240: b9c9 adbc 36ce fc3c cf3d debc 2b92 aa3a
00000250: 6b95 26bb c1ac 143c 06f0 9fbc 261e 89bc
00000260: e432 a8bc ad4b 0fbd 95a4 94bc 7dff ba3b
00000270: 6ea6 3ebc e8cf 5abb 2b69 823c 8ef9 38bc
00000280: 2737 4d3b 0fd4 c0bb 672f 093d a30d b03b
00000290: 2df2 e8bc 89bd 733c d591 0c3c f3ad 7e3c
000002a0: e3f1 133d 83c7 b9bc 30bb 8f3c 9eb0 b8bc
000002b0: 3fb5 da3c 0acf 6a3c f7c3 7d3b 8c1f 583c
000002c0: 9051 1f3c 6575 98ba b3c8 d9ba 5ab0 6fbc
000002d0: ee41 aa3c e557 b5bc a2f3 2bbd f14e d1bb
000002e0: bdbc 013d 4ed3 29bb 4eb9 833c bc93 c1bc
000002f0: 72a0 523b e3f1 4bbc 5bfd 333d c686 03bc
00000300: ec6b fdbc be44 673b 27d3 d13c 3e34 22bb
00000310: f5b5 6b3c ea5c 6ebc 7c16 d33c 2e4d 3bbc
00000320: 464e 27bd 1494 673c 6fa8 66bb 8c72 86bb
00000330: dfc7 72bc 5ad3 ff3b 0380 7639 26b2 923c
00000340: b801 e83b 6428 323c 6c28 84bc d137 59bb
00000350: 52e9 59bc eb2c d8bb d1e4 c73c 237c 533c
00000360: 94fe 06ba 2258 65bc 622e 4bba 6cb4 0ebc
00000370: f165 5a3c 64fe 323c 8fce fa3c b808 c73c
00000380: dcfe 8b3b 4908 633c 00de b7bc ce79 72bc
00000390: e15d b5bc c93e 00bb 9da2 e3bc 3a71 0d3c
000003a0: 1bfd ad3c 918e 0f3d bed3 49bc 513a ab3c
000003b0: 5195 fbbb 0046 303c c92d 4ebc 4363 95bc
000003c0: ede9 843c d8d2 ed3c 2e9d 46bb 35e7 693c
000003d0: 9c99 f3ba b949 743d 0186 7e3c ae1d e7bb
000003e0: d963 e83c ee39 b4bc ef80 f93c 90c2 49bc
000003f0: c18e c73c 8c5a ca3c a05c 83bb 4035 83bc

model_8/tf.__operators__.add/AddV2/y f4 [32]
0.013007415 -0.024077002 0.017259745 -0.024365453 -0.008532445 -0.01771103 -0.014954601 0.027722225
0.000920282 0.0023082553 0.025132662 -0.012277867 0.023407826 0.00636189 0.014671291 -0.019874
-0.0020207423 -0.008965086 -0.01812671 -0.024878113 -0.013044344 -0.014908609 -0.0083273295 -0.0128499195
-0.026577625 0.019490873 0.017387953 0.027067285 0.02488561 0.015594579 0.011548034 -0.018615548
00000000: 0e1d 553c 223d c5bc 4f64 8d3c 0f9a c7bc
00000010: abcb 0bbc b916 91bc 2504 75bc b819 e33c
00000020: 143f 713a 1946 173b 03e3 cd3c 1b29 49bc
00000030: c5c1 bf3c 6777 d03b db5f 703c cdce a2bc
00000040: 6e6e 04bb 4ce2 12bc 777e 94bc 2fcd cbbc
00000050: f2b7 55bc 3d43 74bc 5a6f 08bc 7888 52bc
00000060: 52b9 d9bc 53ab 9f3c 2e71 8e3c 36bc dd3c
00000070: e8dc cb3c 6880 7f3c f733 3d3c a27f 98bc

model_8/tf.__operators__.add_1/AddV2/y f4 [32]
-0.10720933 -0.10110853 0.05973754 0.079339385 -0.06075613 -0.11708233 0.05881522 0.10875857
-0.09806669 0.06659579 -0.01380161 0.040969886 0.1812343 0.092331335 -0.1609343 -0.10999738
-0.07753227 -0.023569755 0.023212625 0.05414412 0.11333206 -0.09423995 0.112394005 -0.17037515
0.08165346 -0.048577394 0.087783046 0.17713133 -0.11439741 -0.05534699 0.15093033 -0.05685258
00000000: 9190 dbbd fd11 cfbd 5aaf 743d b07c a23d
00000010: 6bdb 78bd dcc8 efbd 3ae8 703d d0bc de3d
00000020: 30d7 c8bd 6063 883d 2620 62bc 0ad0 273d
00000030: 7c95 393e 3618 bd3d f6cb 24be 4e46 e1bd
00000040: 3dc9 9ebd 5c15 c1bc 6728 be3c 3ac6 5d3d
00000050: a41a e83d e000 c1bd d42e e63d d376 2ebe
00000060: ee39 a73d 17f9 46bd 99c7 b33d ea61 353e
00000070: 3049 eabd 86b3 62bd 7b8d 1a3e 40de 68bd

model_8/tf.math.add_2/Add/y f4 [1, 32]
0.00390153 -0.02695571 -0.0224404 -0.01923749 -0.0020853272 -0.035573494 -0.017373225 -0.042490747
-0.01592584 -0.022467338 -0.038911477 0.034625188 -0.010869936 -0.0061789355 0.010766642 -0.022975449
0.019742144 -0.03237678 -0.022782613 0.016311469 -0.005212598 -0.028636934 -0.0071008475 -0.015104721
-0.04236341 -0.02879371 0.0070913746 0.014627501 -0.002687796 0.020064866 -0.03322531 -0.03543367
00000000: d0b0 7f3b 39d2 dcbc eed4 b7bc f197 9dbc
00000010: fca9 08bb 83b5 11bd 4b52 8ebc c70a 2ebd
00000020: e876 82bc 6c0d b8bc a461 1fbd 24d3 0d3d
00000030: d117 32bc ab78 cabb 9266 303c 0237 bcbc
00000040: 47ba a13c 849d 04bd 9aa2 babc a19f 853c
00000050: 71ce aabb 0198 eabc 3aae e8bb cb79 77bc
00000060: 4185 2dbd c9e0 ebbc c35e e83b 30a8 6f3c
00000070: bc25 30bb 135f a43c 4317 08bd e522 11bd

model_8/tf.math.add_5/Add/y f4 [1, 32]
0.027011996 0.13218181 -0.11989144 0.3107074 0.07608411 0.08670811 0.013768345 0.061652333
0.08955586 -0.056572422 0.25771648 0.04362988 0.3363967 0.088430226 0.03474937 -0.069667034
0.2861354 0.047249217 0.079053305 0.05598611 0.039731137 0.046879448 0.27324978 0.262202
0.04736302 0.28700623 0.099135846 0.07344489 0.008883425 0.008330936 0.016407026 0.32297415
00000000: 4348 dd3c ab5a 073e a589 f5bd 0a15 9f3e
00000010: fcd1 9b3d 0694 b13d a094 613c 2887 7c3d
00000020: 1069 b73d 7cb8 67bd 6af3 833e 3fb5 323d
00000030: 303c ac3e e81a b53d 5b55 0e3d 97ad 8ebd
00000040: 5780 923e 6588 413d b3e6 a13d b151 653d
00000050: 1ebd 223d aa04 403d 65e7 8b3e 573f 863e
00000060: baff 413d 7bf2 923e bc07 cb3d 466a 963d
00000070: c98b 113c 7a7e 083c 0768 863c de5c a53e

model_8/tf.math.multiply_10/Mul/y f4 [1, 32]
1.0687175 0.9608052 0.9661511 0.9419142 0.9346277 0.95616 0.9088773 0.9591557
0.98935705 0.9714944 0.96631926 0.9543163 0.9580308 0.9759975 1.0148054 1.0625665
0.9378761 1.0061793 1.0007949 1.0282313 0.9934962 0.96830195 0.97019607 0.9504186
0.9580212 0.96094245 1.0006231 1.0108638 1.0360954 1.0590082 0.98124176 0.9605426
00000000: bccb 883f 54f7 753f ae55 773f 4a21 713f
00000010: c343 6f3f e7c6 743f 2fac 683f 3a8b 753f
00000020: 8146 7d3f dbb3 783f b360 773f 134e 743f
00000030: 8241 753f f9da 793f 25e5 813f 2e02 883f
00000040: a618 703f 7cca 803f 0c1a 803f 159d 833f
00000050: c455 7e3f a3e2 773f c55e 783f a24e 733f
00000060: e140 753f 5300 763f 6b14 803f fc63 813f
00000070: c69e 843f 958d 873f a932 7b3f 1fe6 753f

model_8/tf.math.multiply_22/Mul/y f4 [1, 32]
0.98783976 1.1648071 0.87189215 1.386594 1.0936656 1.085705 1.0030282 1.0488955
1.1209444 0.97988886 1.2491577 1.070939 1.4250815 1.1340525 1.0665023 0.96526563
1.3224142 1.0774243 1.0783911 1.1461515 1.0674194 1.1137049 1.3261862 1.26562
1.0972872 1.2956545 1.1301492 1.0984789 1.0078939 1.0443404 1.0796897 1.3948219
00000000: 11e3 7c3f 6618 953f 5334 5f3f ea7b b13f
00000010: 3cfd 8b3f 62f8 8a3f 3a63 803f 3542 863f
00000020: 1b7b 8f3f ffd9 7a3f 66e4 9f3f 8714 893f
00000030: 1269 b63f a228 913f 2683 883f a61b 773f
00000040: de44 a93f 0ae9 893f b808 8a3f 18b5 923f
00000050: 33a1 883f e28d 8e3f 78c0 a93f d6ff a13f
00000060: e873 8c3f 02d8 a53f bba8 903f f59a 8c3f
00000070: ab02 813f f2ac 853f 4633 8a3f 8689 b23f
