hey_lisa.tflite (tflite, 206964 bytes, 9 tensors)

arith.constant f4 [1, 32]
0	0xbeac870f	-0.33696792
1	0x3eb8a214	0.36061156
2	0xbebb3b47	-0.36568663
3	0xbec23023	-0.3792735
4	0xbcd9112c	-0.026497446
5	0xbebb9e38	-0.3664415
6	0x3e3f0630	0.18654704
7	0xbec3a5a7	-0.3821232
8	0xbeb1fbac	-0.34762323
9	0xbeac61c0	-0.33668327
10	0xbc4e741c	-0.012600925
11	0x3e6810df	0.22662686
12	0x3e789184	0.2427426
13	0x3df2016e	0.11816679
14	0x3e9806d3	0.29692706
15	0x3b344f16	0.002751296
16	0x3d2e7854	0.042595223
17	0x3e8abd1b	0.270974
18	0x3e043425	0.12910517
19	0xbec26b32	-0.3797241
20	0x3e923cfa	0.28562146
21	0xbea44eb1	-0.32091287
22	0x3d8c517c	0.068514794
23	0xbebfc4b1	-0.3745475
24	0xbdcc2c2d	-0.09969363
25	0x3e7c60d4	0.24646312
26	0x3e527987	0.20554172
27	0x3e21e597	0.15810238
28	0xbe4483f0	-0.19190955
29	0x3e98260b	0.29716524
30	0xbcf35eae	-0.029708233
31	0x3ea5744a	0.32315284

arith.constant1 f4 [32, 32]
0	0x3b4e5050	0.0031480975
1	0xbe2c138e	-0.16804335
2	0x3dc152e0	0.09439635
3	0x3d39cc93	0.045361113
4	0x3be69397	0.007036637
5	0xbe0d090f	-0.13772987
6	0xbcf0c3df	-0.029390274
7	0x3cb36245	0.021897445
8	0x3e1dad1e	0.1539807
9	0x3dc30275	0.09521953
10	0x3e0750af	0.13214372
11	0x3bdcdb37	0.0067399996
12	0xbdcb88fd	-0.09938238
13	0xbe4c0787	-0.19924746
14	0x3e2368c6	0.15957937
15	0x3d28d15b	0.041215282
16	0xbe0dd3b7	-0.13850294
17	0xbdc846ec	-0.09779152
18	0x3c5c0cab	0.013430755
19	0xbdbf4ea6	-0.09341173
20	0x3de380c9	0.11108548
21	0xba991469	-0.0011679056
22	0xbe011e44	-0.12609202
23	0xbc6d82b6	-0.014496496
24	0x3e18259e	0.148581
25	0x3ce4dac8	0.027936354
26	0x3e529d51	0.20567824
27	0xbe3c249b	-0.18373339
28	0x3d1d10cc	0.038346097
29	0xbdb226cd	-0.08698807
30	0xbe196fce	-0.14984056
31	0x3e192a90	0.14957643
32	0x3d6bbdc8	0.057554036
33	0xbc6ef3a4	-0.014584456
34	0xbc62646b	-0.013817887
35	0x3db5e011	0.08880628
36	0x3dee0c6d	0.11623464
37	0xbd670c32	-0.056408115
38	0x3e1efce1	0.15526153
39	0x3dbdd70d	0.09269533
40	0xbe011998	-0.1260742
41	0xbdbe27a9	-0.09284908
42	0x3d55bf53	0.052184414
43	0xbda00420	-0.07813287
44	0xbd83a72b	-0.06428369
45	0x3df9f1e5	0.12204341
46	0x3e12f396	0.14350733
47	0xbd7c72a3	-0.061632764
48	0x3e07cbaf	0.13261293
49	0x3d95edb8	0.07320732
50	0x3dbed880	0.09318638
51	0x3e631787	0.22176944
52	0xbd2cff91	-0.042235915
53	0x3dee4dd3	0.116359375
54	0xbd33975a	-0.043845512
55	0xbb9c8ff6	-0.0047779037
56	0xbe00fb7d	-0.12595935
57	0x3d5f8bd7	0.05457672
58	0x3dbb6cd7	0.09151619
59	0x3decff37	0.11572116
60	0xbe7dc638	-0.24782646
61	0xbdc4c795	-0.0960838
62	0x3e1162fd	0.14197917
63	0xbd883112	-0.066499844
64	0xbd9f768a	-0.077862814
65	0xbc546238	-0.01296287
66	0xbccdf252	-0.025139961
67	0x3c0f834b	0.00875933
68	0x3db244f2	0.087045565
69	0xbe4a7dde	-0.19774577
70	0xbdba5894	-0.09098926
71	0x3dd96abe	0.106160626
72	0xbe2af932	-0.16696623
73	0xbdf4e2c4	-0.119573146
74	0x3e1fb060	0.15594625
75	0xbcf90b7c	-0.030400984
76	0x3cfdb3e8	0.030969575
77	0xbe1194c8	-0.14216912
78	0xbd074997	-0.033029165
79	0x3dd687af	0.10475098
80	0xbd22eb98	-0.03977546
81	0x3dc9d036	0.09854166
82	0xbdca60a7	-0.09881716
83	0x3daa2d31	0.08309401
84	0x3de77fd2	0.11303677
85	0x3dcdf45e	0.10056375
86	0x3d56dc3e	0.052456133
87	0xbd08a3e1	-0.033359412
88	0x3d8ca1fc	0.068668336
89	0xbd1c7703	-0.038199436
90	0x3e0d6f4e	0.1381199
91	0xbe07165a	-0.1319212
92	0xbe113fd2	-0.14184502
93	0xbd046aae	-0.0323283
94	0xbdb453e6	-0.08805065
95	0x3d47342e	0.048633747
96	0x3d6cb102	0.057785995
97	0xbcb010bb	-0.021492353
98	0xbcc35399	-0.023843573
99	0x3b1dc30d	0.0024072558
100	0xbdd7bc33	-0.10533943
101	0x3d6bb217	0.057542887
102	0x3d0ccee5	0.034376998
103	0x3d4c4e11	0.049879137
104	0xbaa9632d	-0.0012923233
105	0xbd748e3d	-0.05970596
106	0x3e2fcfc6	0.17169103
107	0xbdcc3651	-0.099712975
108	0xbde41879	-0.1113748
109	0xbc3c8cfd	-0.011508224
110	0xbe1fc397	-0.15601955
111	0x3e09cb01	0.13456346
112	0xbdbedc61	-0.09319378
113	0x3e3c75a9	0.18404259
114	0xbe2224c4	-0.15834337
115	0xbc93baf5	-0.018033484
116	0xbe17017d	-0.14746661
117	0xbdd2a37a	-0.10285087
118	0x3b711ba3	0.0036790154
119	0xbc9c9f10	-0.019118816
120	0x3e2f7b89	0.17136969
121	0x3e093a20	0.13401079
122	0xbd505776	-0.05086466
123	0x3d1cf55c	0.03831993
124	0xbc0fb8ae	-0.008772058
125	0xbe012ad7	-0.12613998
126	0xbc4f2ef6	-0.012645474
127	0x3e4160f2	0.18884638
128	0x3d724cb5	0.059155185
129	0xbcfc8cc6	-0.030828845
130	0xbd4eb582	-0.050466068
131	0x3da261ff	0.079288475
132	0x3ce5dd80	0.028059721
133	0xbd9c70b7	-0.07638686
134	0x3d8e4151	0.06946052
135	0xbd3e6a1e	-0.04648792
136	0x3e1094a5	0.14119203
137	0x3c15db52	0.009146528
138	0x3aae1b45	0.0013283273
139	0x3d89c13f	0.06726312
140	0x3d68d6e0	0.056845546
141	0xbd09c2cc	-0.03363304
142	0xbcbcb793	-0.023036754
143	0xbdcae099	-0.0990612
144	0xbde0f8f8	-0.10984987
145	0x3bb66788	0.005566541
146	0x3e29ff9b	0.16601412
147	0x3d9e854b	0.07740267
148	0x3d8750f6	0.06607239
149	0x3ddadffd	0.106872536
150	0x3dbd30ac	0.09237799
151	0x3d146f3b	0.03623889
152	0x3dcd8563	0.10035207
153	0x3cef49b6	0.029209953
154	0x3bf1a2bd	0.0073741362
155	0x3c933d62	0.017973606
156	0xbaca71e1	-0.0015445316
157	0xbdf0fc48	-0.11766869
158	0xbdeb843b	-0.1149983
159	0x3dafa3f5	0.08576194
160	0x3dcdb423	0.10044124
161	0x3df8db2c	0.12151179
162	0x3e0cc935	0.1374863
163	0x3d5b20d1	0.053498093
164	0xbdbae715	-0.09126107
165	0x3d3c0637	0.045904364
166	0xbd931772	-0.07182206
167	0xbd6cc78f	-0.0578075
168	0xbe0c260a	-0.13686386
169	0xbc8b06fc	-0.016971104
170	0xbc38ab94	-0.011271376
171	0xbcbe39d3	-0.023220932
172	0xbddd6de2	-0.10811974
173	0xbddcb4a3	-0.10776641
174	0x3e0058d0	0.1253388
175	0x3db0075b	0.08595153
176	0xbde71fe3	-0.11285379
177	0x3d9ea93b	0.07747122
178	0xbe2bf381	-0.16792108
179	0x3bd1a099	0.0063973186
180	0x3dca89d7	0.09889572
181	0xbe45c56b	-0.1931359
182	0xbd73e88b	-0.059547942
183	0xbcc454d5	-0.023966232
184	0x3e16c2b2	0.14722708
185	0x3e3274c9	0.17427363
186	0x3e29edab	0.1659457
187	0xbdf399ea	-0.11894591
188	0x3dbeed2b	0.0932258
189	0xbc55d078	-0.013050191
190	0xbb270e87	-0.0025490837
191	0xbdb8a3cb	-0.09015616
192	0xbd495abe	-0.049158804
193	0x3da0f79a	0.07859726
194	0x3db11c98	0.08648032
195	0x3df5a23b	0.11993834
196	0x3d931f1c	0.07183668
197	0x3df3bdd4	0.11901441
198	0x3d9af634	0.07566491
199	0x3d406068	0.04696694
200	0xbd07ac39	-0.03312323
201	0xbd586174	-0.052827314
202	0x3c72a1ba	0.014809066
203	0xbd85cd8a	-0.06533344
204	0xbdd862b3	-0.105657004
205	0x3e0eb9b3	0.13938026
206	0xbbc5a4df	-0.006031617
207	0x3dc3e45b	0.0956504
208	0xbd93e96a	-0.072222546
209	0xbdacbb70	-0.08434188
210	0x3ba143ae	0.004921398
211	0x3e05c74e	0.1306431
212	0xbcec52b6	-0.028848033
213	0xbe08c211	-0.1335528
214	0xbdbb74a1	-0.091531046
215	0x3dc574a0	0.09641385
216	0x3d21cbdf	0.039501067
217	0x3db1109e	0.086457476
218	0xbde31462	-0.11087872
219	0x3e0d091c	0.13773006
220	0xbd745eaa	-0.05966059
221	0xbdb87467	-0.09006577
222	0x3d5c0388	0.053714305
223	0x3d8707c0	0.06593275
224	0xbe25521b	-0.16144602
225	0x3d52b2ba	0.05143998
226	0xbe201c38	-0.15635765
227	0x3d8c2e8b	0.06844815
228	0xbe1eb3a7	-0.1549822
229	0x3e015e8d	0.12633725
230	0xbc901cfb	-0.017591944
231	0x3d277902	0.040886886
232	0xbd11d1f5	-0.03560062
233	0xbe547886	-0.20749101
234	0x37b426e7	2.1475787e-05
235	0x3d0fa2f4	0.035067514
236	0xbc06b9b9	-0.008222991
237	0xbe2a6694	-0.16640693
238	0x3dd57cb1	0.104241736
239	0x3d142e0c	0.036176726
240	0xbd68405b	-0.056702
241	0x3dd2bba2	0.10289694
242	0x3d3538b1	0.04424352
243	0xbe439aa6	-0.19101962
244	0x3d198a35	0.03748532
245	0xbdd3ba27	-0.1033824
246	0x3db92f15	0.09042183
247	0xbc68b7b4	-0.0142039545
248	0x3e0f0d0e	0.13969824
249	0x3e2064e9	0.15663494
250	0xbd9f59aa	-0.07780774
251	0x3dfcaa92	0.12337221
252	0x3da72693	0.08161654
253	0xbdb4e26c	-0.08832249
254	0x3de9c1b9	0.11413903
255	0x3de04cfd	0.10952184

arith.constant2 f4 [32, 1536]
0	0x3c32f60e	0.010922922
1	0xbc24cac3	-0.010058108
2	0xbc8e24ed	-0.017351592
3	0xbcb115bc	-0.02161681
4	0x3c356161	0.01107058
5	0x3bd6b42e	0.006552241
6	0x3b34b78d	0.0027575225
7	0x3c505a0a	0.0127167795
8	0xbccf077d	-0.025272125
9	0x3c57b835	0.013166477
10	0x3b971bd8	0.0046114735
11	0xbc44e731	-0.012018011
12	0xbb453a7a	-0.003009467
13	0xbc62290e	-0.0138037335
14	0xbc344322	-0.011002334
15	0x3b6efb64	0.0036465758
16	0xbd0d19a2	-0.034448273
17	0x3c05976e	0.008153779
18	0xbc3e7f09	-0.011626967
19	0xbd02c1d2	-0.031923123
20	0xbcb12c76	-0.021627646
21	0x3c0cc2e1	0.008591385
22	0x3be996f2	0.00712859
23	0xbd16f407	-0.036853816
24	0x3cd26d03	0.025686746
25	0x3c665937	0.014059356
26	0xbbe031e0	-0.006841883
27	0xb89be5f3	-7.433807e-05
28	0x3c29a50d	0.010354293
29	0xbc4cc8cc	-0.012499046
30	0x3b19a46d	0.0023443953
31	0x3c797fa2	0.015228184
32	0xbc761a64	-0.01502094
33	0xbca173ef	-0.019708602
34	0x3c83ee92	0.01610497
35	0xbb7e5690	-0.003880892
36	0xbc6a7b93	-0.014311689
37	0x3bce80d2	0.0063019777
38	0xbca186ec	-0.019717656
39	0xbb054588	-0.0020335633
40	0xbbd454b9	-0.0064798263
41	0x3be9691b	0.0071231253
42	0x3cab7da3	0.020933932
43	0xbc96ab4f	-0.018392233
44	0x3c4fbeb8	0.012679748
45	0x3c098059	0.008392417
46	0xbcbe1a49	-0.023205893
47	0xbc04f686	-0.008115416
48	0xbb5e137b	-0.0033886123
49	0xbb069f97	-0.00205419
50	0x3c5944b2	0.013261007
51	0x3cf5b8ed	0.029995406
52	0xb9c3745d	-0.00037279996
53	0x3c1a4b86	0.00941742
54	0x3ab97a7c	0.0014150883
55	0x3c511cc0	0.012763202
56	0x3c993368	0.01870127
57	0x3c2de567	0.010613776
58	0x3ca56107	0.020187868
59	0xbceaddba	-0.02867018
60	0xbcb4fcd6	-0.022093218
61	0xbc42397f	-0.011854528
62	0xbba642e5	-0.0050738924
63	0xbd30bccb	-0.043148797
64	0xbc1b98b9	-0.009496861
65	0x3aba50c5	0.0014214745
66	0x3d1ce5b8	0.038305014
67	0xbd015512	-0.03157527
68	0xbd13f49c	-0.03612195
69	0x3cc8b078	0.02449821
70	0x3c8b06fc	0.016971104
71	0xbc9c0a80	-0.019047976
72	0x3bfd182d	0.0077238292
73	0x3c3eae59	0.011638247
74	0xbb8894d7	-0.0041681337
75	0xbcca8bd9	-0.024724888
76	0x3c0a3e3b	0.008437688
77	0x3c66a24c	0.0140767805
78	0xbce23526	-0.027613234
79	0x3c9f9558	0.019480392
80	0xbb0b9661	-0.002129935
81	0xbcc91aa0	-0.024548829
82	0x3921beb3	0.00015425197
83	0xbbe60893	-0.007020065
84	0x3cf18793	0.029483592
85	0xbd181af2	-0.037135072
86	0x3c59510f	0.013263955
87	0x3b7da115	0.0038700749
88	0xbb10aa8b	-0.0022074308
89	0x3a4d89e9	0.00078406796
90	0x3cfd4439	0.03091632
91	0x3c4c431f	0.012467175
92	0xbb60d67e	-0.0034307535
93	0xbc846cd6	-0.016165178
94	0x3c09f6fd	0.008420703
95	0xbc877058	-0.016533062
96	0xbb7d3918	-0.0038638767
97	0x3bbfe429	0.005856056
98	0x3ba0da7a	0.004908857
99	0x3b06f48b	0.0020592536
100	0x3c0590ce	0.0081522
101	0x3b753883	0.0037417717
102	0x3c0e416b	0.008682589
103	0xbc936ebf	-0.017997144
104	0xbd211c26	-0.039333485
105	0x3cbe4591	0.023226531
106	0xbb9ccdbd	-0.004785268
107	0x3c212c13	0.009837168
108	0xbc9a9bc7	-0.018873109
109	0x3c8776f8	0.01653622
110	0xbc071757	-0.008245311
111	0xbcf117a7	-0.029430224
112	0xbcef7db8	-0.029234752
113	0x3aa02d6b	0.0012220567
114	0x3c3610b5	0.011112382
115	0xbca8aa2e	-0.02058896
116	0xbc437e9d	-0.011932042
117	0x3cbef177	0.023308499
118	0x3cf59400	0.029977798
119	0x3b18a638	0.0023292433
120	0xbc5e2036	-0.013557484
121	0x3cfd50ca	0.030922312
122	0xbca61ab0	-0.020276397
123	0x3c5ffed1	0.013671593
124	0xbc3577da	-0.011075938
125	0x3c183d55	0.009291966
126	0x3cb0f01b	0.021598866
127	0x3ca76f9a	0.020438958
128	0x3cbbae02	0.022910122
129	0x3a1ea259	0.00060514134
130	0xbc4f2eaf	-0.012645408
131	0x3b4ab6ae	0.003093164
132	0x3cc897c0	0.024486423
133	0x3c8f25be	0.017474052
134	0xbc4315ce	-0.011907054
135	0xbcc7b5c2	-0.024378661
136	0xbc9ba462	-0.018999282
137	0xba8715db	-0.0010306196
138	0xbac04eff	-0.001467198
139	0xbd01991b	-0.031640153
140	0x3c7710a2	0.015079649
141	0xbca83fe5	-0.02053828
142	0xbc51e847	-0.012811727
143	0x3b071068	0.0020609144
144	0xbc1b97f0	-0.009496674
145	0x3d44ddbf	0.048063036
146	0x3c25c4ff	0.010117768
147	0xbc08f14d	-0.008358312
148	0xbc8511cc	-0.016243838
149	0x3b74033a	0.0037233368
150	0xbc39dfaa	-0.01134483
151	0xbc0f72ba	-0.00875538
152	0x3c826d03	0.015921121
153	0x3cc11959	0.023571657
154	0x3c55e9c5	0.013056223
155	0xbc6ad8e8	-0.014333941
156	0x3c09c1df	0.008408039
157	0x3c6d48fb	0.014482732
158	0xbcb488a8	-0.022037819
159	0xbc395c89	-0.011313566
160	0xbba630f6	-0.0050717546
161	0xb9e4dec2	-0.00043653516
162	0x3caf22e7	0.021378947
163	0x3ba220e7	0.00494777
164	0xbc2b3d78	-0.010451667
165	0x3d433c60	0.047665
166	0x3c130e1c	0.008975532
167	0xbc832e7d	-0.016013378
168	0xbc3e1022	-0.011600526
169	0x3bb2ccf0	0.0054565594
170	0xbc8556b6	-0.016276699
171	0xbc95a17f	-0.018265484
172	0x3c78c558	0.015183769
173	0xbcc1a2a6	-0.023637127
174	0x3c88f13f	0.016716598
175	0x3c116c4b	0.008875917
176	0x3ca63062	0.020286743
177	0xbc75e38a	-0.015007863
178	0xbb08573f	-0.0020803956
179	0x3c8e09dc	0.017338686
180	0xbcac71c4	-0.021050341
181	0xbbea5d79	-0.007152256
182	0xba08f1d9	-0.00052240264
183	0xba88ebd0	-0.0010446254
184	0xbcd13ba7	-0.02554114
185	0xbc46ffbb	-0.012145932
186	0x3ca471da	0.02007382
187	0x3bef7a4f	0.0073082815
188	0x3c3feba4	0.011713896
189	0x39c77ceb	0.0003804931
190	0x3c7486c6	0.014924711
191	0x3c16829e	0.009186415
192	0xbcc30430	-0.023805708
193	0xbc630a4a	-0.013857434
194	0x3c8fd363	0.017556852
195	0xbc3b300c	-0.0114250295
196	0x3c97d0e6	0.018532228
197	0x3b60c1c5	0.0034295183
198	0x3c582945	0.013193433
199	0x3b42f53a	0.0029748217
200	0xbd0d2585	-0.03445961
201	0x3b6fafbe	0.0036573256
202	0xbc602520	-0.013680726
203	0xbd05a994	-0.032632425
204	0xbbd63ddc	-0.006538136
205	0xbc7cbd94	-0.015426058
206	0xbcbf8070	-0.023376673
207	0xbc93118b	-0.017952701
208	0xbc7aa74b	-0.015298675
209	0x3c3e9a91	0.011633531
210	0xbc0ecfe5	-0.008716558
211	0xbca6ef85	-0.020377884
212	0x3b83e407	0.0040249857
213	0xbb1e6f7c	-0.0024175337
214	0x3c4e21fe	0.012581347
215	0x3c3a53ff	0.011372565
216	0x3cfef86d	0.031124318
217	0x3cc764f4	0.02434013
218	0x3bc1c0c1	0.0059128706
219	0x3bd88f63	0.00660889
220	0xbb7cfb39	-0.0038601889
221	0xbc44f893	-0.012022155
222	0xbb9b307b	-0.004736004
223	0xbc526213	-0.0128407655
224	0x3c8861dc	0.016648225
225	0xbb90bbed	-0.0044169337
226	0x3c07e247	0.008293695
227	0x3c3af5be	0.011411129
228	0x3c0f1b89	0.008734592
229	0x3ca622d1	0.020280274
230	0x3c741852	0.014898377
231	0xbc81b8d0	-0.015835196
232	0xbc68a8d5	-0.014200409
233	0xbca8889f	-0.020572959
234	0x3c5c6297	0.01345124
235	0x3ba84f6d	0.0051364214
236	0xbacaca1f	-0.0015471614
237	0x3cd2d826	0.025737833
238	0xbcb6eb28	-0.022328928
239	0xbb747c2c	-0.0037305458
240	0xbbfed0d2	-0.007776358
241	0x3cd2ac72	0.025716994
242	0xbc8e23d0	-0.017351061
243	0x39aeb377	0.00033321578
244	0xbcdbed22	-0.026846472
245	0x3cc815b8	0.024424419
246	0x3af7bee4	0.0018901494
247	0xbb16dcae	-0.002301972
248	0xbcd0eaad	-0.025502527
249	0xbc8416e5	-0.016124198
250	0x3c019702	0.007909538
251	0xbd1422da	-0.03616605
252	0xbc0363c1	-0.008019389
253	0x3cd09f71	0.025466653
254	0x39b704a3	0.00034907935
255	0xbc93b847	-0.018032206

model_8/tf.__operators__.add/AddV2/y f4 [32]
0	0xbc9bfdd7	-0.019041939
1	0xbc9c431c	-0.019074969
2	0x3c853847	0.016262187
3	0xbca3bb1c	-0.019986682
4	0xbcd78e8c	-0.026313089
5	0xbce421dd	-0.027848179
6	0x3c51952d	0.012791914
7	0xbc49116d	-0.012272221
8	0xbca5760a	-0.020197887
9	0x3bb82d07	0.005620602
10	0xb9e603e8	-0.0004387193
11	0xbc443134	-0.011974622
12	0x3c7bdae7	0.015372015
13	0x3b97620e	0.0046198433
14	0xba57ec40	-0.0008236803
15	0x3d10dbfa	0.035366036
16	0x3cc5a473	0.024126267
17	0x3c84f40e	0.016229656
18	0xbc3793bc	-0.011204656
19	0xbc601e41	-0.013679088
20	0x3c0a0b42	0.008425536
21	0x3c8bbccd	0.0170578
22	0xbc220c2c	-0.009890597
23	0xbc61f199	-0.0137905115
24	0x3d107d44	0.035275713
25	0x3cc9693e	0.024586316
26	0x3bcf4dc1	0.0063264077
27	0xbbdba7dd	-0.0067033605
28	0x3c8490e5	0.016182372
29	0xbc77a01d	-0.015113858
30	0xbc02c8ba	-0.007982427
31	0xb9c8dde2	-0.00038312288

model_8/tf.__operators__.add_1/AddV2/y f4 [32]
0	0xbda749b1	-0.081683524
1	0xbe28cf36	-0.16485295
2	0x3dca074a	0.098646715
3	0x3deb0740	0.11475992
4	0xbdc22797	-0.094802074
5	0xbd4fbda5	-0.05071797
6	0xbcaf2a7c	-0.021382563
7	0x3d2b7f8d	0.04186969
8	0xbe0497fa	-0.129486
9	0x3e035d6d	0.12828608
10	0x3bdd87a4	0.0067605544
11	0xbe18dc07	-0.14927684
12	0xbc9f4c5d	-0.019445593
13	0xbd20f6ac	-0.039297745
14	0xbdd82e3c	-0.105556935
15	0xbcef682a	-0.029224474
16	0x3dac7e48	0.08422524
17	0x3dc3e9c8	0.095660746
18	0x3e0a1f53	0.13488512
19	0x3dc24d92	0.094874516
20	0xbcfb806f	-0.03070089
21	0x3e0db901	0.13840105
22	0xbd723fc6	-0.05914285
23	0x3df6b4b8	0.12046188
24	0x3e29b6d9	0.16573657
25	0xbd5d4cec	-0.054028437
26	0x3e13ea53	0.14444856
27	0xbe178912	-0.14798382
28	0x3d199def	0.037504133
29	0xbda270bb	-0.07931658
30	0xbe3bc439	-0.18336572
31	0x3de36809	0.111038275

model_8/tf.math.add_2/Add/y f4 [1, 32]
0	0xbd2cd655	-0.04219659
1	0xbd78576b	-0.060630243
2	0xbcfa327f	-0.030541657
3	0xbd403262	-0.04692305
4	0xbc8dbe04	-0.01730252
5	0xbc35e830	-0.011102721
6	0xbd05abe0	-0.032634616
7	0xbc767743	-0.015043083
8	0xbcdc2369	-0.026872354
9	0x3d308bb0	0.043101966
10	0xbc8ebcd6	-0.017424028
11	0xbc966167	-0.018356992
12	0x3c9808e7	0.018558932
13	0x3c9d2829	0.019184189
14	0x3ce6fe38	0.028197393
15	0x3c460475	0.012086024
16	0x3d290493	0.041264128
17	0x3b9df3a3	0.0048203035
18	0xbc06c29e	-0.008225111
19	0x3c9943b6	0.018709045
20	0xbbaa0a94	-0.0051892493
21	0x3cc56d51	0.024099978
22	0xbd3a69c1	-0.04551101
23	0xbd0310bc	-0.03199838
24	0x3c0525cc	0.008126687
25	0xbd4008de	-0.046883456
26	0x3b5ad270	0.003338959
27	0x3c52ccf0	0.012866244
28	0x3be3a5b9	0.006947246
29	0xbcdd115b	-0.026985815
30	0xbca2ee63	-0.019889062
31	0x378ddd02	1.6911425e-05

model_8/tf.math.add_5/Add/y f4 [1, 32]
0	0x3e71cf79	0.23614301
1	0x3db9ea3a	0.09077878
2	0x3e5fcbbb	0.21855061
3	0x3e6d5eb2	0.23180655
4	0xbc5899bb	-0.013220246
5	0x3e70c557	0.23512779
6	0x3d5d9ae6	0.0541028
7	0x3e6d118e	0.23151228
8	0x3e78c379	0.24293317
9	0x3e77b92c	0.24191731
10	0xbd778aef	-0.06043523
11	0x3dd03bd4	0.10167661
12	0x3dc56981	0.09639264
13	0x3d4671e9	0.048448477
14	0x3e0a4e77	0.13506494
15	0xbdadc29f	-0.08484387
16	0x3ae616da	0.0017554418
17	0x3dcc80a1	0.099854715
18	0x3d944640	0.072399616
19	0x3e8333c0	0.2562542
20	0x3daf4d6b	0.08559688
21	0x3e845582	0.25846487
22	0xbc65d0ec	-0.014026862
23	0x3e70adee	0.23503849
24	0x3d4ceb6c	0.050029203
25	0x3d47dc5e	0.048794143
26	0x3e038faa	0.12847772
27	0x3ddb35af	0.10703599
28	0x3c927a31	0.017880531
29	0x3dc02eac	0.09383902
30	0xbcabf0e1	-0.020988883
31	0x3d9aa89a	0.075516894

model_8/tf.math.multiply_10/Mul/y f4 [1, 32]
0	0x3f6f238c	0.93413615
1	0x3f725517	0.94661087
2	0x3f746567	0.9546723
3	0x3f75a3bf	0.9595298
4	0x3f7e0dff	0.99240106
5	0x3f79957d	0.97493726
6	0x3f7bd310	0.9836893
7	0x3f7eaf01	0.99485785
8	0x3f731f4f	0.9496965
9	0x3f861fc2	1.0478442
10	0x3f7f0ccc	0.996289
11	0x3f7bbd55	0.9833577
12	0x3f841694	1.031939
13	0x3f85185c	1.0398059
14	0x3f7e53f1	0.99346834
15	0x3f802f8f	1.0014514
16	0x3f7f1acc	0.99650264
17	0x3f7bce75	0.98361903
18	0x3f74221c	0.95364547
19	0x3f83ae50	1.0287571
20	0x3f76501c	0.9621599
21	0x3f7c45cf	0.9854402
22	0x3f722a25	0.9459556
23	0x3f76aa04	0.96353173
24	0x3f828934	1.0198121
25	0x3f77ecfd	0.9684599
26	0x3f79b72b	0.9754512
27	0x3f80b5af	1.0055445
28	0x3f755a42	0.9584085
29	0x3f76ff6c	0.9648349
30	0x3f786d61	0.970419
31	0x3f80765d	1.0036122

model_8/tf.math.multiply_22/Mul/y f4 [1, 32]
0	0x3f9f7707	1.2458199
1	0x3fa08a08	1.2542124
2	0x3f9ac3bb	1.2090982
3	0x3fa1f590	1.2653065
4	0x3f711fcf	0.9418916
5	0x3fa3a5c0	1.2784958
6	0x3f916f2e	1.1362054
7	0x3fa40997	1.2815427
8	0x3fa254cd	1.2682129
9	0x3fa1b022	1.2631876
10	0x3f6f9ae5	0.93595725
11	0x3f8e963b	1.1139597
12	0x3f91e98d	1.1399399
13	0x3f8cba91	1.0994436
14	0x3f946e45	1.1596152
15	0x3f660e15	0.8986524
16	0x3f82c9ed	1.0217873
17	0x3f91248c	1.1339278
18	0x3f8d85b5	1.1056429
19	0x3fae9070	1.3637829
20	0x3f8f1a05	1.1179816
21	0x3fa6b470	1.3023815
22	0x3f81f695	1.0153376
23	0x3f9e9068	1.2387819
24	0x3f868fdb	1.0512651
25	0x3f8e468f	1.1115283
26	0x3f9228a5	1.1418654
27	0x3f9b2769	1.2121402
28	0x3f89952d	1.074865
29	0x3f926740	1.1437759
30	0x3f8158e9	1.0105258
31	0x3f9ab3d1	1.2086126
